…
12/12/2019 21:47:59 VERBOSE  Non-trainable params: 0
12/12/2019 21:47:59 VERBOSE  _________________________________________________________________
12/12/2019 21:47:59 VERBOSE  Decoder_A:
12/12/2019 21:47:59 VERBOSE  __________________________________________________________________________________________________
12/12/2019 21:47:59 VERBOSE  Layer (type)                    Output Shape         Param #     Connected to
12/12/2019 21:47:59 VERBOSE  ==================================================================================================
12/12/2019 21:47:59 VERBOSE  input_1 (InputLayer)            (None, 4, 4, 1024)   0
12/12/2019 21:47:59 VERBOSE  __________________________________________________________________________________________________
12/12/2019 21:47:59 VERBOSE  flatten_1 (Flatten)             (None, 16384)        0           input_1[0][0]
12/12/2019 21:47:59 VERBOSE  __________________________________________________________________________________________________
12/12/2019 21:47:59 VERBOSE  dense_1 (Dense)                 (None, 1024)         16778240    flatten_1[0][0]
12/12/2019 21:47:59 VERBOSE  __________________________________________________________________________________________________
12/12/2019 21:47:59 VERBOSE  dense_2 (Dense)                 (None, 10912)        11184800    dense_1[0][0]
12/12/2019 21:47:59 VERBOSE  __________________________________________________________________________________________________
12/12/2019 21:47:59 VERBOSE  reshape_1 (Reshape)             (None, 4, 4, 682)    0           dense_2[0][0]
12/12/2019 21:47:59 VERBOSE  __________________________________________________________________________________________________
12/12/2019 21:47:59 VERBOSE  upscale_4_0_conv2d (Conv2D)     (None, 4, 4, 2728)   16747192    reshape_1[0][0]
12/12/2019 21:47:59 VERBOSE  __________________________________________________________________________________________________
12/12/2019 21:47:59 VERBOSE  upscale_4_0_leakyrelu (LeakyReL (None, 4, 4, 2728)   0           upscale_4_0_conv2d[0][0]
12/12/2019 21:47:59 VERBOSE  __________________________________________________________________________________________________
12/12/2019 21:47:59 VERBOSE  upscale_4_0_pixelshuffler (Pixe (None, 8, 8, 682)    0           upscale_4_0_leakyrelu[0][0]
12/12/2019 21:47:59 VERBOSE  __________________________________________________________________________________________________
12/12/2019 21:47:59 VERBOSE  residual_8_0_leakyrelu_0 (Leaky (None, 8, 8, 682)    0           upscale_4_0_pixelshuffler[0][0]
12/12/2019 21:47:59 VERBOSE  __________________________________________________________________________________________________
12/12/2019 21:47:59 VERBOSE  residual_8_0_conv2d_0 (Conv2D)  (None, 8, 8, 682)    4186116     residual_8_0_leakyrelu_0[0][0]
12/12/2019 21:47:59 VERBOSE  __________________________________________________________________________________________________
12/12/2019 21:47:59 VERBOSE  residual_8_0_leakyrelu_1 (Leaky (None, 8, 8, 682)    0           residual_8_0_conv2d_0[0][0]
12/12/2019 21:47:59 VERBOSE  __________________________________________________________________________________________________
12/12/2019 21:47:59 VERBOSE  conv2d_8_0 (Conv2D)             (None, 8, 8, 682)    4186116     residual_8_0_leakyrelu_1[0][0]
12/12/2019 21:47:59 VERBOSE  __________________________________________________________________________________________________
12/12/2019 21:47:59 VERBOSE  add_1 (Add)                     (None, 8, 8, 682)    0           conv2d_8_0[0][0]
12/12/2019 21:47:59 VERBOSE                                                                   upscale_4_0_pixelshuffler[0][0]
12/12/2019 21:47:59 VERBOSE  __________________________________________________________________________________________________
12/12/2019 21:47:59 VERBOSE  residual_8_0_leakyrelu_3 (Leaky (None, 8, 8, 682)    0           add_1[0][0]
12/12/2019 21:47:59 VERBOSE  __________________________________________________________________________________________________
12/12/2019 21:47:59 VERBOSE  upscale_8_0_conv2d (Conv2D)     (None, 8, 8, 1364)   8373596     residual_8_0_leakyrelu_3[0][0]
12/12/2019 21:47:59 VERBOSE  __________________________________________________________________________________________________
12/12/2019 21:47:59 VERBOSE  upscale_8_1_conv2d (Conv2D)     (None, 8, 8, 1536)   9429504     upscale_4_0_pixelshuffler[0][0]
12/12/2019 21:47:59 VERBOSE  __________________________________________________________________________________________________
12/12/2019 21:47:59 VERBOSE  upscale_8_0_leakyrelu (LeakyReL (None, 8, 8, 1364)   0           upscale_8_0_conv2d[0][0]
12/12/2019 21:47:59 VERBOSE  __________________________________________________________________________________________________
12/12/2019 21:47:59 VERBOSE  upscale_8_1_leakyrelu (LeakyReL (None, 8, 8, 1536)   0           upscale_8_1_conv2d[0][0]
12/12/2019 21:47:59 VERBOSE  __________________________________________________________________________________________________
12/12/2019 21:47:59 VERBOSE  upscale_8_0_pixelshuffler (Pixe (None, 16, 16, 341)  0           upscale_8_0_leakyrelu[0][0]
12/12/2019 21:47:59 VERBOSE  __________________________________________________________________________________________________
12/12/2019 21:47:59 VERBOSE  upscale_8_1_pixelshuffler (Pixe (None, 16, 16, 384)  0           upscale_8_1_leakyrelu[0][0]
12/12/2019 21:47:59 VERBOSE  __________________________________________________________________________________________________
12/12/2019 21:47:59 VERBOSE  upscale_16_0_conv2d (Conv2D)    (None, 16, 16, 680)  2087600     upscale_8_0_pixelshuffler[0][0]
12/12/2019 21:47:59 VERBOSE  __________________________________________________________________________________________________
12/12/2019 21:47:59 VERBOSE  upscale_16_1_conv2d (Conv2D)    (None, 16, 16, 768)  2654976     upscale_8_1_pixelshuffler[0][0]
12/12/2019 21:47:59 VERBOSE  __________________________________________________________________________________________________
12/12/2019 21:47:59 VERBOSE  upscale_16_0_leakyrelu (LeakyRe (None, 16, 16, 680)  0           upscale_16_0_conv2d[0][0]
12/12/2019 21:47:59 VERBOSE  __________________________________________________________________________________________________
12/12/2019 21:47:59 VERBOSE  upscale_16_1_leakyrelu (LeakyRe (None, 16, 16, 768)  0           upscale_16_1_conv2d[0][0]
12/12/2019 21:47:59 VERBOSE  __________________________________________________________________________________________________
12/12/2019 21:47:59 VERBOSE  upscale_16_0_pixelshuffler (Pix (None, 32, 32, 170)  0           upscale_16_0_leakyrelu[0][0]
12/12/2019 21:47:59 VERBOSE  __________________________________________________________________________________________________
12/12/2019 21:47:59 VERBOSE  upscale_16_1_pixelshuffler (Pix (None, 32, 32, 192)  0           upscale_16_1_leakyrelu[0][0]
12/12/2019 21:47:59 VERBOSE  __________________________________________________________________________________________________
12/12/2019 21:47:59 VERBOSE  upscale_32_0_conv2d (Conv2D)    (None, 32, 32, 340)  520540      upscale_16_0_pixelshuffler[0][0]
12/12/2019 21:47:59 VERBOSE  __________________________________________________________________________________________________
12/12/2019 21:47:59 VERBOSE  upscale_32_1_conv2d (Conv2D)    (None, 32, 32, 384)  663936      upscale_16_1_pixelshuffler[0][0]
12/12/2019 21:47:59 VERBOSE  __________________________________________________________________________________________________
12/12/2019 21:47:59 VERBOSE  upscale_32_0_leakyrelu (LeakyRe (None, 32, 32, 340)  0           upscale_32_0_conv2d[0][0]
12/12/2019 21:47:59 VERBOSE  __________________________________________________________________________________________________
12/12/2019 21:47:59 VERBOSE  upscale_32_1_leakyrelu (LeakyRe (None, 32, 32, 384)  0           upscale_32_1_conv2d[0][0]
12/12/2019 21:47:59 VERBOSE  __________________________________________________________________________________________________
12/12/2019 21:47:59 VERBOSE  upscale_32_0_pixelshuffler (Pix (None, 64, 64, 85)   0           upscale_32_0_leakyrelu[0][0]
12/12/2019 21:47:59 VERBOSE  __________________________________________________________________________________________________
12/12/2019 21:47:59 VERBOSE  upscale_32_1_pixelshuffler (Pix (None, 64, 64, 96)   0           upscale_32_1_leakyrelu[0][0]
12/12/2019 21:47:59 VERBOSE  __________________________________________________________________________________________________
12/12/2019 21:47:59 VERBOSE  upscale_64_0_conv2d (Conv2D)    (None, 64, 64, 168)  128688      upscale_32_0_pixelshuffler[0][0]
12/12/2019 21:47:59 VERBOSE  __________________________________________________________________________________________________
12/12/2019 21:47:59 VERBOSE  upscale_64_1_conv2d (Conv2D)    (None, 64, 64, 192)  166080      upscale_32_1_pixelshuffler[0][0]
12/12/2019 21:47:59 VERBOSE  __________________________________________________________________________________________________
12/12/2019 21:47:59 VERBOSE  upscale_64_0_leakyrelu (LeakyRe (None, 64, 64, 168)  0           upscale_64_0_conv2d[0][0]
12/12/2019 21:47:59 VERBOSE  __________________________________________________________________________________________________
12/12/2019 21:47:59 VERBOSE  upscale_64_1_leakyrelu (LeakyRe (None, 64, 64, 192)  0           upscale_64_1_conv2d[0][0]
12/12/2019 21:47:59 VERBOSE  __________________________________________________________________________________________________
12/12/2019 21:47:59 VERBOSE  upscale_64_0_pixelshuffler (Pix (None, 128, 128, 42) 0           upscale_64_0_leakyrelu[0][0]
12/12/2019 21:47:59 VERBOSE  __________________________________________________________________________________________________
12/12/2019 21:47:59 VERBOSE  upscale_64_1_pixelshuffler (Pix (None, 128, 128, 48) 0           upscale_64_1_leakyrelu[0][0]
12/12/2019 21:47:59 VERBOSE  __________________________________________________________________________________________________
12/12/2019 21:47:59 VERBOSE  face_out (Conv2D)               (None, 128, 128, 3)  3153        upscale_64_0_pixelshuffler[0][0]
12/12/2019 21:47:59 VERBOSE  __________________________________________________________________________________________________
12/12/2019 21:47:59 VERBOSE  mask_out (Conv2D)               (None, 128, 128, 1)  1201        upscale_64_1_pixelshuffler[0][0]
12/12/2019 21:47:59 VERBOSE  ==================================================================================================
12/12/2019 21:47:59 VERBOSE  Total params: 77,111,738
12/12/2019 21:47:59 VERBOSE  Trainable params: 77,111,738
12/12/2019 21:47:59 VERBOSE  Non-trainable params: 0
12/12/2019 21:47:59 VERBOSE  __________________________________________________________________________________________________
12/12/2019 21:47:59 VERBOSE  Encoder:
12/12/2019 21:47:59 VERBOSE  __________________________________________________________________________________________________
12/12/2019 21:47:59 VERBOSE  Layer (type)                    Output Shape         Param #     Connected to
12/12/2019 21:47:59 VERBOSE  ==================================================================================================
12/12/2019 21:47:59 VERBOSE  input_3 (InputLayer)            (None, 64, 64, 3)    0
12/12/2019 21:47:59 VERBOSE  __________________________________________________________________________________________________
12/12/2019 21:47:59 VERBOSE  conv_64_0_conv2d (Conv2D)       (None, 32, 32, 128)  9728        input_3[0][0]
12/12/2019 21:47:59 VERBOSE  __________________________________________________________________________________________________
12/12/2019 21:47:59 VERBOSE  conv_64_0_leakyrelu (LeakyReLU) (None, 32, 32, 128)  0           conv_64_0_conv2d[0][0]
12/12/2019 21:47:59 VERBOSE  __________________________________________________________________________________________________
12/12/2019 21:47:59 VERBOSE  residual_32_2_leakyrelu_0 (Leak (None, 32, 32, 128)  0           conv_64_0_leakyrelu[0][0]
12/12/2019 21:47:59 VERBOSE  __________________________________________________________________________________________________
12/12/2019 21:47:59 VERBOSE  residual_32_2_conv2d_0 (Conv2D) (None, 32, 32, 128)  147584      residual_32_2_leakyrelu_0[0][0]
12/12/2019 21:47:59 VERBOSE  __________________________________________________________________________________________________
12/12/2019 21:47:59 VERBOSE  residual_32_2_leakyrelu_1 (Leak (None, 32, 32, 128)  0           residual_32_2_conv2d_0[0][0]
12/12/2019 21:47:59 VERBOSE  __________________________________________________________________________________________________
12/12/2019 21:47:59 VERBOSE  conv2d_32_2 (Conv2D)            (None, 32, 32, 128)  147584      residual_32_2_leakyrelu_1[0][0]
12/12/2019 21:47:59 VERBOSE  __________________________________________________________________________________________________
12/12/2019 21:47:59 VERBOSE  add_9 (Add)                     (None, 32, 32, 128)  0           conv2d_32_2[0][0]
12/12/2019 21:47:59 VERBOSE                                                                   conv_64_0_leakyrelu[0][0]
12/12/2019 21:47:59 VERBOSE  __________________________________________________________________________________________________
12/12/2019 21:47:59 VERBOSE  residual_32_2_leakyrelu_3 (Leak (None, 32, 32, 128)  0           add_9[0][0]
12/12/2019 21:47:59 VERBOSE  __________________________________________________________________________________________________
12/12/2019 21:47:59 VERBOSE  residual_32_3_leakyrelu_0 (Leak (None, 32, 32, 128)  0           residual_32_2_leakyrelu_3[0][0]
12/12/2019 21:47:59 VERBOSE  __________________________________________________________________________________________________
12/12/2019 21:47:59 VERBOSE  residual_32_3_conv2d_0 (Conv2D) (None, 32, 32, 128)  147584      residual_32_3_leakyrelu_0[0][0]
12/12/2019 21:47:59 VERBOSE  __________________________________________________________________________________________________
12/12/2019 21:47:59 VERBOSE  residual_32_3_leakyrelu_1 (Leak (None, 32, 32, 128)  0           residual_32_3_conv2d_0[0][0]
12/12/2019 21:47:59 VERBOSE  __________________________________________________________________________________________________
12/12/2019 21:47:59 VERBOSE  conv2d_32_3 (Conv2D)            (None, 32, 32, 128)  147584      residual_32_3_leakyrelu_1[0][0]
12/12/2019 21:47:59 VERBOSE  __________________________________________________________________________________________________
12/12/2019 21:47:59 VERBOSE  add_10 (Add)                    (None, 32, 32, 128)  0           conv2d_32_3[0][0]
12/12/2019 21:47:59 VERBOSE                                                                   residual_32_2_leakyrelu_3[0][0]
12/12/2019 21:47:59 VERBOSE  __________________________________________________________________________________________________
12/12/2019 21:47:59 VERBOSE  residual_32_3_leakyrelu_3 (Leak (None, 32, 32, 128)  0           add_10[0][0]
12/12/2019 21:47:59 VERBOSE  __________________________________________________________________________________________________
12/12/2019 21:47:59 VERBOSE  conv_32_0_conv2d (Conv2D)       (None, 16, 16, 256)  819456      residual_32_3_leakyrelu_3[0][0]
12/12/2019 21:47:59 VERBOSE  __________________________________________________________________________________________________
12/12/2019 21:47:59 VERBOSE  conv_32_0_leakyrelu (LeakyReLU) (None, 16, 16, 256)  0           conv_32_0_conv2d[0][0]
12/12/2019 21:47:59 VERBOSE  __________________________________________________________________________________________________
12/12/2019 21:47:59 VERBOSE  residual_16_2_leakyrelu_0 (Leak (None, 16, 16, 256)  0           conv_32_0_leakyrelu[0][0]
12/12/2019 21:47:59 VERBOSE  __________________________________________________________________________________________________
12/12/2019 21:47:59 VERBOSE  residual_16_2_conv2d_0 (Conv2D) (None, 16, 16, 256)  590080      residual_16_2_leakyrelu_0[0][0]
12/12/2019 21:47:59 VERBOSE  __________________________________________________________________________________________________
12/12/2019 21:47:59 VERBOSE  residual_16_2_leakyrelu_1 (Leak (None, 16, 16, 256)  0           residual_16_2_conv2d_0[0][0]
12/12/2019 21:47:59 VERBOSE  __________________________________________________________________________________________________
12/12/2019 21:47:59 VERBOSE  conv2d_16_2 (Conv2D)            (None, 16, 16, 256)  590080      residual_16_2_leakyrelu_1[0][0]
12/12/2019 21:47:59 VERBOSE  __________________________________________________________________________________________________
12/12/2019 21:47:59 VERBOSE  add_11 (Add)                    (None, 16, 16, 256)  0           conv2d_16_2[0][0]
12/12/2019 21:47:59 VERBOSE                                                                   conv_32_0_leakyrelu[0][0]
12/12/2019 21:47:59 VERBOSE  __________________________________________________________________________________________________
12/12/2019 21:47:59 VERBOSE  residual_16_2_leakyrelu_3 (Leak (None, 16, 16, 256)  0           add_11[0][0]
12/12/2019 21:47:59 VERBOSE  __________________________________________________________________________________________________
12/12/2019 21:47:59 VERBOSE  residual_16_3_leakyrelu_0 (Leak (None, 16, 16, 256)  0           residual_16_2_leakyrelu_3[0][0]
12/12/2019 21:47:59 VERBOSE  __________________________________________________________________________________________________
12/12/2019 21:47:59 VERBOSE  residual_16_3_conv2d_0 (Conv2D) (None, 16, 16, 256)  590080      residual_16_3_leakyrelu_0[0][0]
12/12/2019 21:47:59 VERBOSE  __________________________________________________________________________________________________
12/12/2019 21:47:59 VERBOSE  residual_16_3_leakyrelu_1 (Leak (None, 16, 16, 256)  0           residual_16_3_conv2d_0[0][0]
12/12/2019 21:47:59 VERBOSE  __________________________________________________________________________________________________
12/12/2019 21:47:59 VERBOSE  conv2d_16_3 (Conv2D)            (None, 16, 16, 256)  590080      residual_16_3_leakyrelu_1[0][0]
12/12/2019 21:47:59 VERBOSE  __________________________________________________________________________________________________
12/12/2019 21:47:59 VERBOSE  add_12 (Add)                    (None, 16, 16, 256)  0           conv2d_16_3[0][0]
12/12/2019 21:47:59 VERBOSE                                                                   residual_16_2_leakyrelu_3[0][0]
12/12/2019 21:47:59 VERBOSE  __________________________________________________________________________________________________
12/12/2019 21:47:59 VERBOSE  residual_16_3_leakyrelu_3 (Leak (None, 16, 16, 256)  0           add_12[0][0]
12/12/2019 21:47:59 VERBOSE  __________________________________________________________________________________________________
12/12/2019 21:47:59 VERBOSE  conv_16_0_conv2d (Conv2D)       (None, 8, 8, 512)    3277312     residual_16_3_leakyrelu_3[0][0]
12/12/2019 21:47:59 VERBOSE  __________________________________________________________________________________________________
12/12/2019 21:47:59 VERBOSE  conv_16_0_leakyrelu (LeakyReLU) (None, 8, 8, 512)    0           conv_16_0_conv2d[0][0]
12/12/2019 21:47:59 VERBOSE  __________________________________________________________________________________________________
12/12/2019 21:47:59 VERBOSE  residual_8_2_leakyrelu_0 (Leaky (None, 8, 8, 512)    0           conv_16_0_leakyrelu[0][0]
12/12/2019 21:47:59 VERBOSE  __________________________________________________________________________________________________
12/12/2019 21:47:59 VERBOSE  residual_8_2_conv2d_0 (Conv2D)  (None, 8, 8, 512)    2359808     residual_8_2_leakyrelu_0[0][0]
12/12/2019 21:47:59 VERBOSE  __________________________________________________________________________________________________
12/12/2019 21:47:59 VERBOSE  residual_8_2_leakyrelu_1 (Leaky (None, 8, 8, 512)    0           residual_8_2_conv2d_0[0][0]
12/12/2019 21:47:59 VERBOSE  __________________________________________________________________________________________________
12/12/2019 21:47:59 VERBOSE  conv2d_8_2 (Conv2D)             (None, 8, 8, 512)    2359808     residual_8_2_leakyrelu_1[0][0]
12/12/2019 21:47:59 VERBOSE  __________________________________________________________________________________________________
12/12/2019 21:47:59 VERBOSE  add_13 (Add)                    (None, 8, 8, 512)    0           conv2d_8_2[0][0]
12/12/2019 21:47:59 VERBOSE                                                                   conv_16_0_leakyrelu[0][0]
12/12/2019 21:47:59 VERBOSE  __________________________________________________________________________________________________
12/12/2019 21:47:59 VERBOSE  residual_8_2_leakyrelu_3 (Leaky (None, 8, 8, 512)    0           add_13[0][0]
12/12/2019 21:47:59 VERBOSE  __________________________________________________________________________________________________
12/12/2019 21:47:59 VERBOSE  residual_8_3_leakyrelu_0 (Leaky (None, 8, 8, 512)    0           residual_8_2_leakyrelu_3[0][0]
12/12/2019 21:47:59 VERBOSE  __________________________________________________________________________________________________
12/12/2019 21:47:59 VERBOSE  residual_8_3_conv2d_0 (Conv2D)  (None, 8, 8, 512)    2359808     residual_8_3_leakyrelu_0[0][0]
12/12/2019 21:47:59 VERBOSE  __________________________________________________________________________________________________
12/12/2019 21:47:59 VERBOSE  residual_8_3_leakyrelu_1 (Leaky (None, 8, 8, 512)    0           residual_8_3_conv2d_0[0][0]
12/12/2019 21:47:59 VERBOSE  __________________________________________________________________________________________________
12/12/2019 21:47:59 VERBOSE  conv2d_8_3 (Conv2D)             (None, 8, 8, 512)    2359808     residual_8_3_leakyrelu_1[0][0]
12/12/2019 21:47:59 VERBOSE  __________________________________________________________________________________________________
12/12/2019 21:47:59 VERBOSE  add_14 (Add)                    (None, 8, 8, 512)    0           conv2d_8_3[0][0]
12/12/2019 21:47:59 VERBOSE                                                                   residual_8_2_leakyrelu_3[0][0]
12/12/2019 21:47:59 VERBOSE  __________________________________________________________________________________________________
12/12/2019 21:47:59 VERBOSE  residual_8_3_leakyrelu_3 (Leaky (None, 8, 8, 512)    0           add_14[0][0]
12/12/2019 21:47:59 VERBOSE  __________________________________________________________________________________________________
12/12/2019 21:47:59 VERBOSE  conv_8_0_conv2d (Conv2D)        (None, 4, 4, 1024)   13108224    residual_8_3_leakyrelu_3[0][0]
12/12/2019 21:47:59 VERBOSE  __________________________________________________________________________________________________
12/12/2019 21:47:59 VERBOSE  conv_8_0_leakyrelu (LeakyReLU)  (None, 4, 4, 1024)   0           conv_8_0_conv2d[0][0]
12/12/2019 21:47:59 VERBOSE  ==================================================================================================
12/12/2019 21:47:59 VERBOSE  Total params: 29,604,608
12/12/2019 21:47:59 VERBOSE  Trainable params: 29,604,608
12/12/2019 21:47:59 VERBOSE  Non-trainable params: 0
12/12/2019 21:47:59 VERBOSE  __________________________________________________________________________________________________
12/12/2019 21:47:59 VERBOSE  [Realface B Summary]:
12/12/2019 21:47:59 VERBOSE  _________________________________________________________________
12/12/2019 21:47:59 VERBOSE  Layer (type)                 Output Shape              Param #
12/12/2019 21:47:59 VERBOSE  =================================================================
12/12/2019 21:47:59 VERBOSE  face_in (InputLayer)         (None, 64, 64, 3)         0
12/12/2019 21:47:59 VERBOSE  _________________________________________________________________
12/12/2019 21:47:59 VERBOSE  encoder (Model)              (None, 4, 4, 1024)        29604608
12/12/2019 21:47:59 VERBOSE  _________________________________________________________________
12/12/2019 21:47:59 VERBOSE  decoder_b (Model)            [(None, 128, 128, 3), (No 162084532
12/12/2019 21:47:59 VERBOSE  =================================================================
12/12/2019 21:47:59 VERBOSE  Total params: 191,689,140
12/12/2019 21:47:59 VERBOSE  Trainable params: 191,689,140
12/12/2019 21:47:59 VERBOSE  Non-trainable params: 0
12/12/2019 21:47:59 VERBOSE  _________________________________________________________________
12/12/2019 21:47:59 VERBOSE  Decoder_B:
12/12/2019 21:47:59 VERBOSE  __________________________________________________________________________________________________
12/12/2019 21:47:59 VERBOSE  Layer (type)                    Output Shape         Param #     Connected to
12/12/2019 21:47:59 VERBOSE  ==================================================================================================
12/12/2019 21:47:59 VERBOSE  input_2 (InputLayer)            (None, 4, 4, 1024)   0
12/12/2019 21:47:59 VERBOSE  __________________________________________________________________________________________________
12/12/2019 21:47:59 VERBOSE  flatten_2 (Flatten)             (None, 16384)        0           input_2[0][0]
12/12/2019 21:47:59 VERBOSE  __________________________________________________________________________________________________
12/12/2019 21:47:59 VERBOSE  dense_3 (Dense)                 (None, 1536)         25167360    flatten_2[0][0]
12/12/2019 21:47:59 VERBOSE  __________________________________________________________________________________________________
12/12/2019 21:47:59 VERBOSE  dense_4 (Dense)                 (None, 16384)        25182208    dense_3[0][0]
12/12/2019 21:47:59 VERBOSE  __________________________________________________________________________________________________
12/12/2019 21:47:59 VERBOSE  reshape_2 (Reshape)             (None, 4, 4, 1024)   0           dense_4[0][0]
12/12/2019 21:47:59 VERBOSE  __________________________________________________________________________________________________
12/12/2019 21:47:59 VERBOSE  upscale_4_1_conv2d (Conv2D)     (None, 4, 4, 4096)   37752832    reshape_2[0][0]
12/12/2019 21:47:59 VERBOSE  __________________________________________________________________________________________________
12/12/2019 21:47:59 VERBOSE  upscale_4_1_leakyrelu (LeakyReL (None, 4, 4, 4096)   0           upscale_4_1_conv2d[0][0]
12/12/2019 21:47:59 VERBOSE  __________________________________________________________________________________________________
12/12/2019 21:47:59 VERBOSE  upscale_4_1_pixelshuffler (Pixe (None, 8, 8, 1024)   0           upscale_4_1_leakyrelu[0][0]
12/12/2019 21:47:59 VERBOSE  __________________________________________________________________________________________________
12/12/2019 21:47:59 VERBOSE  residual_8_1_leakyrelu_0 (Leaky (None, 8, 8, 1024)   0           upscale_4_1_pixelshuffler[0][0]
12/12/2019 21:47:59 VERBOSE  __________________________________________________________________________________________________
12/12/2019 21:47:59 VERBOSE  residual_8_1_conv2d_0 (Conv2D)  (None, 8, 8, 1024)   9437184     residual_8_1_leakyrelu_0[0][0]
12/12/2019 21:47:59 VERBOSE  __________________________________________________________________________________________________
12/12/2019 21:47:59 VERBOSE  residual_8_1_leakyrelu_1 (Leaky (None, 8, 8, 1024)   0           residual_8_1_conv2d_0[0][0]
12/12/2019 21:47:59 VERBOSE  __________________________________________________________________________________________________
12/12/2019 21:47:59 VERBOSE  conv2d_8_1 (Conv2D)             (None, 8, 8, 1024)   9437184     residual_8_1_leakyrelu_1[0][0]
12/12/2019 21:47:59 VERBOSE  __________________________________________________________________________________________________
12/12/2019 21:47:59 VERBOSE  add_2 (Add)                     (None, 8, 8, 1024)   0           conv2d_8_1[0][0]
12/12/2019 21:47:59 VERBOSE                                                                   upscale_4_1_pixelshuffler[0][0]
12/12/2019 21:47:59 VERBOSE  __________________________________________________________________________________________________
12/12/2019 21:47:59 VERBOSE  residual_8_1_leakyrelu_3 (Leaky (None, 8, 8, 1024)   0           add_2[0][0]
12/12/2019 21:47:59 VERBOSE  __________________________________________________________________________________________________
12/12/2019 21:47:59 VERBOSE  upscale_8_2_conv2d (Conv2D)     (None, 8, 8, 2048)   18876416    residual_8_1_leakyrelu_3[0][0]
12/12/2019 21:47:59 VERBOSE  __________________________________________________________________________________________________
12/12/2019 21:47:59 VERBOSE  upscale_8_2_leakyrelu (LeakyReL (None, 8, 8, 2048)   0           upscale_8_2_conv2d[0][0]
12/12/2019 21:47:59 VERBOSE  __________________________________________________________________________________________________
12/12/2019 21:47:59 VERBOSE  upscale_8_2_pixelshuffler (Pixe (None, 16, 16, 512)  0           upscale_8_2_leakyrelu[0][0]
12/12/2019 21:47:59 VERBOSE  __________________________________________________________________________________________________
12/12/2019 21:47:59 VERBOSE  residual_16_0_leakyrelu_0 (Leak (None, 16, 16, 512)  0           upscale_8_2_pixelshuffler[0][0]
12/12/2019 21:47:59 VERBOSE  __________________________________________________________________________________________________
12/12/2019 21:47:59 VERBOSE  residual_16_0_conv2d_0 (Conv2D) (None, 16, 16, 512)  2359296     residual_16_0_leakyrelu_0[0][0]
12/12/2019 21:47:59 VERBOSE  __________________________________________________________________________________________________
12/12/2019 21:47:59 VERBOSE  residual_16_0_leakyrelu_1 (Leak (None, 16, 16, 512)  0           residual_16_0_conv2d_0[0][0]
12/12/2019 21:47:59 VERBOSE  __________________________________________________________________________________________________
12/12/2019 21:47:59 VERBOSE  conv2d_16_0 (Conv2D)            (None, 16, 16, 512)  2359296     residual_16_0_leakyrelu_1[0][0]
12/12/2019 21:47:59 VERBOSE  __________________________________________________________________________________________________
12/12/2019 21:47:59 VERBOSE  add_3 (Add)                     (None, 16, 16, 512)  0           conv2d_16_0[0][0]
12/12/2019 21:47:59 VERBOSE                                                                   upscale_8_2_pixelshuffler[0][0]
12/12/2019 21:47:59 VERBOSE  __________________________________________________________________________________________________
12/12/2019 21:47:59 VERBOSE  residual_16_0_leakyrelu_3 (Leak (None, 16, 16, 512)  0           add_3[0][0]
12/12/2019 21:47:59 VERBOSE  __________________________________________________________________________________________________
12/12/2019 21:47:59 VERBOSE  residual_16_1_leakyrelu_0 (Leak (None, 16, 16, 512)  0           residual_16_0_leakyrelu_3[0][0]
12/12/2019 21:47:59 VERBOSE  __________________________________________________________________________________________________
12/12/2019 21:47:59 VERBOSE  residual_16_1_conv2d_0 (Conv2D) (None, 16, 16, 512)  2359808     residual_16_1_leakyrelu_0[0][0]
12/12/2019 21:47:59 VERBOSE  __________________________________________________________________________________________________
12/12/2019 21:47:59 VERBOSE  residual_16_1_leakyrelu_1 (Leak (None, 16, 16, 512)  0           residual_16_1_conv2d_0[0][0]
12/12/2019 21:47:59 VERBOSE  __________________________________________________________________________________________________
12/12/2019 21:47:59 VERBOSE  conv2d_16_1 (Conv2D)            (None, 16, 16, 512)  2359808     residual_16_1_leakyrelu_1[0][0]
12/12/2019 21:47:59 VERBOSE  __________________________________________________________________________________________________
12/12/2019 21:47:59 VERBOSE  add_4 (Add)                     (None, 16, 16, 512)  0           conv2d_16_1[0][0]
12/12/2019 21:47:59 VERBOSE                                                                   residual_16_0_leakyrelu_3[0][0]
12/12/2019 21:47:59 VERBOSE  __________________________________________________________________________________________________
12/12/2019 21:47:59 VERBOSE  residual_16_1_leakyrelu_3 (Leak (None, 16, 16, 512)  0           add_4[0][0]
12/12/2019 21:47:59 VERBOSE  __________________________________________________________________________________________________
12/12/2019 21:47:59 VERBOSE  upscale_16_2_conv2d (Conv2D)    (None, 16, 16, 1024) 4719616     residual_16_1_leakyrelu_3[0][0]
12/12/2019 21:47:59 VERBOSE  __________________________________________________________________________________________________
12/12/2019 21:47:59 VERBOSE  upscale_16_2_leakyrelu (LeakyRe (None, 16, 16, 1024) 0           upscale_16_2_conv2d[0][0]
12/12/2019 21:47:59 VERBOSE  __________________________________________________________________________________________________
12/12/2019 21:47:59 VERBOSE  upscale_16_2_pixelshuffler (Pix (None, 32, 32, 256)  0           upscale_16_2_leakyrelu[0][0]
12/12/2019 21:47:59 VERBOSE  __________________________________________________________________________________________________
12/12/2019 21:47:59 VERBOSE  residual_32_0_leakyrelu_0 (Leak (None, 32, 32, 256)  0           upscale_16_2_pixelshuffler[0][0]
12/12/2019 21:47:59 VERBOSE  __________________________________________________________________________________________________
12/12/2019 21:47:59 VERBOSE  residual_32_0_conv2d_0 (Conv2D) (None, 32, 32, 256)  589824      residual_32_0_leakyrelu_0[0][0]
12/12/2019 21:47:59 VERBOSE  __________________________________________________________________________________________________
12/12/2019 21:47:59 VERBOSE  residual_32_0_leakyrelu_1 (Leak (None, 32, 32, 256)  0           residual_32_0_conv2d_0[0][0]
12/12/2019 21:47:59 VERBOSE  __________________________________________________________________________________________________
12/12/2019 21:47:59 VERBOSE  conv2d_32_0 (Conv2D)            (None, 32, 32, 256)  589824      residual_32_0_leakyrelu_1[0][0]
12/12/2019 21:47:59 VERBOSE  __________________________________________________________________________________________________
12/12/2019 21:47:59 VERBOSE  add_5 (Add)                     (None, 32, 32, 256)  0           conv2d_32_0[0][0]
12/12/2019 21:47:59 VERBOSE                                                                   upscale_16_2_pixelshuffler[0][0]
12/12/2019 21:47:59 VERBOSE  __________________________________________________________________________________________________
12/12/2019 21:47:59 VERBOSE  residual_32_0_leakyrelu_3 (Leak (None, 32, 32, 256)  0           add_5[0][0]
12/12/2019 21:47:59 VERBOSE  __________________________________________________________________________________________________
12/12/2019 21:47:59 VERBOSE  residual_32_1_leakyrelu_0 (Leak (None, 32, 32, 256)  0           residual_32_0_leakyrelu_3[0][0]
12/12/2019 21:47:59 VERBOSE  __________________________________________________________________________________________________
12/12/2019 21:47:59 VERBOSE  residual_32_1_conv2d_0 (Conv2D) (None, 32, 32, 256)  590080      residual_32_1_leakyrelu_0[0][0]
12/12/2019 21:47:59 VERBOSE  __________________________________________________________________________________________________
12/12/2019 21:47:59 VERBOSE  residual_32_1_leakyrelu_1 (Leak (None, 32, 32, 256)  0           residual_32_1_conv2d_0[0][0]
12/12/2019 21:47:59 VERBOSE  __________________________________________________________________________________________________
12/12/2019 21:47:59 VERBOSE  conv2d_32_1 (Conv2D)            (None, 32, 32, 256)  590080      residual_32_1_leakyrelu_1[0][0]
12/12/2019 21:47:59 VERBOSE  __________________________________________________________________________________________________
12/12/2019 21:47:59 VERBOSE  add_6 (Add)                     (None, 32, 32, 256)  0           conv2d_32_1[0][0]
12/12/2019 21:47:59 VERBOSE                                                                   residual_32_0_leakyrelu_3[0][0]
12/12/2019 21:47:59 VERBOSE  __________________________________________________________________________________________________
12/12/2019 21:47:59 VERBOSE  residual_32_1_leakyrelu_3 (Leak (None, 32, 32, 256)  0           add_6[0][0]
12/12/2019 21:47:59 VERBOSE  __________________________________________________________________________________________________
12/12/2019 21:47:59 VERBOSE  upscale_32_2_conv2d (Conv2D)    (None, 32, 32, 512)  1180160     residual_32_1_leakyrelu_3[0][0]
12/12/2019 21:47:59 VERBOSE  __________________________________________________________________________________________________
12/12/2019 21:47:59 VERBOSE  upscale_32_2_leakyrelu (LeakyRe (None, 32, 32, 512)  0           upscale_32_2_conv2d[0][0]
12/12/2019 21:47:59 VERBOSE  __________________________________________________________________________________________________
12/12/2019 21:47:59 VERBOSE  upscale_32_2_pixelshuffler (Pix (None, 64, 64, 128)  0           upscale_32_2_leakyrelu[0][0]
12/12/2019 21:47:59 VERBOSE  __________________________________________________________________________________________________
12/12/2019 21:47:59 VERBOSE  residual_64_0_leakyrelu_0 (Leak (None, 64, 64, 128)  0           upscale_32_2_pixelshuffler[0][0]
12/12/2019 21:47:59 VERBOSE  __________________________________________________________________________________________________
12/12/2019 21:47:59 VERBOSE  residual_64_0_conv2d_0 (Conv2D) (None, 64, 64, 128)  147456      residual_64_0_leakyrelu_0[0][0]
12/12/2019 21:47:59 VERBOSE  __________________________________________________________________________________________________
12/12/2019 21:47:59 VERBOSE  residual_64_0_leakyrelu_1 (Leak (None, 64, 64, 128)  0           residual_64_0_conv2d_0[0][0]
12/12/2019 21:47:59 VERBOSE  __________________________________________________________________________________________________
12/12/2019 21:47:59 VERBOSE  conv2d_64_0 (Conv2D)            (None, 64, 64, 128)  147456      residual_64_0_leakyrelu_1[0][0]
12/12/2019 21:47:59 VERBOSE  __________________________________________________________________________________________________
12/12/2019 21:47:59 VERBOSE  upscale_8_3_conv2d (Conv2D)     (None, 8, 8, 1536)   14157312    upscale_4_1_pixelshuffler[0][0]
12/12/2019 21:47:59 VERBOSE  __________________________________________________________________________________________________
12/12/2019 21:47:59 VERBOSE  add_7 (Add)                     (None, 64, 64, 128)  0           conv2d_64_0[0][0]
12/12/2019 21:47:59 VERBOSE                                                                   upscale_32_2_pixelshuffler[0][0]
12/12/2019 21:47:59 VERBOSE  __________________________________________________________________________________________________
12/12/2019 21:47:59 VERBOSE  upscale_8_3_leakyrelu (LeakyReL (None, 8, 8, 1536)   0           upscale_8_3_conv2d[0][0]
12/12/2019 21:47:59 VERBOSE  __________________________________________________________________________________________________
12/12/2019 21:47:59 VERBOSE  residual_64_0_leakyrelu_3 (Leak (None, 64, 64, 128)  0           add_7[0][0]
12/12/2019 21:47:59 VERBOSE  __________________________________________________________________________________________________
12/12/2019 21:47:59 VERBOSE  upscale_8_3_pixelshuffler (Pixe (None, 16, 16, 384)  0           upscale_8_3_leakyrelu[0][0]
12/12/2019 21:47:59 VERBOSE  __________________________________________________________________________________________________
12/12/2019 21:47:59 VERBOSE  residual_64_1_leakyrelu_0 (Leak (None, 64, 64, 128)  0           residual_64_0_leakyrelu_3[0][0]
12/12/2019 21:47:59 VERBOSE  __________________________________________________________________________________________________
12/12/2019 21:47:59 VERBOSE  upscale_16_3_conv2d (Conv2D)    (None, 16, 16, 768)  2654976     upscale_8_3_pixelshuffler[0][0]
12/12/2019 21:47:59 VERBOSE  __________________________________________________________________________________________________
12/12/2019 21:47:59 VERBOSE  residual_64_1_conv2d_0 (Conv2D) (None, 64, 64, 128)  147584      residual_64_1_leakyrelu_0[0][0]
12/12/2019 21:47:59 VERBOSE  __________________________________________________________________________________________________
12/12/2019 21:47:59 VERBOSE  upscale_16_3_leakyrelu (LeakyRe (None, 16, 16, 768)  0           upscale_16_3_conv2d[0][0]
12/12/2019 21:47:59 VERBOSE  __________________________________________________________________________________________________
12/12/2019 21:47:59 VERBOSE  residual_64_1_leakyrelu_1 (Leak (None, 64, 64, 128)  0           residual_64_1_conv2d_0[0][0]
12/12/2019 21:47:59 VERBOSE  __________________________________________________________________________________________________
12/12/2019 21:47:59 VERBOSE  upscale_16_3_pixelshuffler (Pix (None, 32, 32, 192)  0           upscale_16_3_leakyrelu[0][0]
12/12/2019 21:47:59 VERBOSE  __________________________________________________________________________________________________
12/12/2019 21:47:59 VERBOSE  conv2d_64_1 (Conv2D)            (None, 64, 64, 128)  147584      residual_64_1_leakyrelu_1[0][0]
12/12/2019 21:47:59 VERBOSE  __________________________________________________________________________________________________
12/12/2019 21:47:59 VERBOSE  upscale_32_3_conv2d (Conv2D)    (None, 32, 32, 384)  663936      upscale_16_3_pixelshuffler[0][0]
12/12/2019 21:47:59 VERBOSE  __________________________________________________________________________________________________
12/12/2019 21:47:59 VERBOSE  add_8 (Add)                     (None, 64, 64, 128)  0           conv2d_64_1[0][0]
12/12/2019 21:47:59 VERBOSE                                                                   residual_64_0_leakyrelu_3[0][0]
12/12/2019 21:47:59 VERBOSE  __________________________________________________________________________________________________
12/12/2019 21:47:59 VERBOSE  upscale_32_3_leakyrelu (LeakyRe (None, 32, 32, 384)  0           upscale_32_3_conv2d[0][0]
12/12/2019 21:47:59 VERBOSE  __________________________________________________________________________________________________
12/12/2019 21:47:59 VERBOSE  residual_64_1_leakyrelu_3 (Leak (None, 64, 64, 128)  0           add_8[0][0]
12/12/2019 21:47:59 VERBOSE  __________________________________________________________________________________________________
12/12/2019 21:47:59 VERBOSE  upscale_32_3_pixelshuffler (Pix (None, 64, 64, 96)   0           upscale_32_3_leakyrelu[0][0]
12/12/2019 21:47:59 VERBOSE  __________________________________________________________________________________________________
12/12/2019 21:47:59 VERBOSE  upscale_64_2_conv2d (Conv2D)    (None, 64, 64, 256)  295168      residual_64_1_leakyrelu_3[0][0]
12/12/2019 21:47:59 VERBOSE  __________________________________________________________________________________________________
12/12/2019 21:47:59 VERBOSE  upscale_64_3_conv2d (Conv2D)    (None, 64, 64, 192)  166080      upscale_32_3_pixelshuffler[0][0]
12/12/2019 21:47:59 VERBOSE  __________________________________________________________________________________________________
12/12/2019 21:47:59 VERBOSE  upscale_64_2_leakyrelu (LeakyRe (None, 64, 64, 256)  0           upscale_64_2_conv2d[0][0]
12/12/2019 21:47:59 VERBOSE  __________________________________________________________________________________________________
12/12/2019 21:47:59 VERBOSE  upscale_64_3_leakyrelu (LeakyRe (None, 64, 64, 192)  0           upscale_64_3_conv2d[0][0]
12/12/2019 21:47:59 VERBOSE  __________________________________________________________________________________________________
12/12/2019 21:47:59 VERBOSE  upscale_64_2_pixelshuffler (Pix (None, 128, 128, 64) 0           upscale_64_2_leakyrelu[0][0]
12/12/2019 21:47:59 VERBOSE  __________________________________________________________________________________________________
12/12/2019 21:47:59 VERBOSE  upscale_64_3_pixelshuffler (Pix (None, 128, 128, 48) 0           upscale_64_3_leakyrelu[0][0]
12/12/2019 21:47:59 VERBOSE  __________________________________________________________________________________________________
12/12/2019 21:47:59 VERBOSE  face_out (Conv2D)               (None, 128, 128, 3)  4803        upscale_64_2_pixelshuffler[0][0]
12/12/2019 21:47:59 VERBOSE  __________________________________________________________________________________________________
12/12/2019 21:47:59 VERBOSE  mask_out (Conv2D)               (None, 128, 128, 1)  1201        upscale_64_3_pixelshuffler[0][0]
12/12/2019 21:47:59 VERBOSE  ==================================================================================================
12/12/2019 21:47:59 VERBOSE  Total params: 162,084,532
12/12/2019 21:47:59 VERBOSE  Trainable params: 162,084,532
12/12/2019 21:47:59 VERBOSE  Non-trainable params: 0
12/12/2019 21:47:59 VERBOSE  __________________________________________________________________________________________________
12/12/2019 21:47:59 VERBOSE  Encoder:
12/12/2019 21:47:59 VERBOSE  __________________________________________________________________________________________________
12/12/2019 21:47:59 VERBOSE  Layer (type)                    Output Shape         Param #     Connected to
12/12/2019 21:47:59 VERBOSE  ==================================================================================================
12/12/2019 21:47:59 VERBOSE  input_3 (InputLayer)            (None, 64, 64, 3)    0
12/12/2019 21:47:59 VERBOSE  __________________________________________________________________________________________________
12/12/2019 21:47:59 VERBOSE  conv_64_0_conv2d (Conv2D)       (None, 32, 32, 128)  9728        input_3[0][0]
12/12/2019 21:47:59 VERBOSE  __________________________________________________________________________________________________
12/12/2019 21:47:59 VERBOSE  conv_64_0_leakyrelu (LeakyReLU) (None, 32, 32, 128)  0           conv_64_0_conv2d[0][0]
12/12/2019 21:47:59 VERBOSE  __________________________________________________________________________________________________
12/12/2019 21:47:59 VERBOSE  residual_32_2_leakyrelu_0 (Leak (None, 32, 32, 128)  0           conv_64_0_leakyrelu[0][0]
12/12/2019 21:47:59 VERBOSE  __________________________________________________________________________________________________
12/12/2019 21:47:59 VERBOSE  residual_32_2_conv2d_0 (Conv2D) (None, 32, 32, 128)  147584      residual_32_2_leakyrelu_0[0][0]
12/12/2019 21:47:59 VERBOSE  __________________________________________________________________________________________________
12/12/2019 21:47:59 VERBOSE  residual_32_2_leakyrelu_1 (Leak (None, 32, 32, 128)  0           residual_32_2_conv2d_0[0][0]
12/12/2019 21:47:59 VERBOSE  __________________________________________________________________________________________________
12/12/2019 21:47:59 VERBOSE  conv2d_32_2 (Conv2D)            (None, 32, 32, 128)  147584      residual_32_2_leakyrelu_1[0][0]
12/12/2019 21:47:59 VERBOSE  __________________________________________________________________________________________________
12/12/2019 21:47:59 VERBOSE  add_9 (Add)                     (None, 32, 32, 128)  0           conv2d_32_2[0][0]
12/12/2019 21:47:59 VERBOSE                                                                   conv_64_0_leakyrelu[0][0]
12/12/2019 21:47:59 VERBOSE  __________________________________________________________________________________________________
12/12/2019 21:47:59 VERBOSE  residual_32_2_leakyrelu_3 (Leak (None, 32, 32, 128)  0           add_9[0][0]
12/12/2019 21:47:59 VERBOSE  __________________________________________________________________________________________________
12/12/2019 21:47:59 VERBOSE  residual_32_3_leakyrelu_0 (Leak (None, 32, 32, 128)  0           residual_32_2_leakyrelu_3[0][0]
12/12/2019 21:47:59 VERBOSE  __________________________________________________________________________________________________
12/12/2019 21:47:59 VERBOSE  residual_32_3_conv2d_0 (Conv2D) (None, 32, 32, 128)  147584      residual_32_3_leakyrelu_0[0][0]
12/12/2019 21:47:59 VERBOSE  __________________________________________________________________________________________________
12/12/2019 21:47:59 VERBOSE  residual_32_3_leakyrelu_1 (Leak (None, 32, 32, 128)  0           residual_32_3_conv2d_0[0][0]
12/12/2019 21:47:59 VERBOSE  __________________________________________________________________________________________________
12/12/2019 21:47:59 VERBOSE  conv2d_32_3 (Conv2D)            (None, 32, 32, 128)  147584      residual_32_3_leakyrelu_1[0][0]
12/12/2019 21:47:59 VERBOSE  __________________________________________________________________________________________________
12/12/2019 21:47:59 VERBOSE  add_10 (Add)                    (None, 32, 32, 128)  0           conv2d_32_3[0][0]
12/12/2019 21:47:59 VERBOSE                                                                   residual_32_2_leakyrelu_3[0][0]
12/12/2019 21:47:59 VERBOSE  __________________________________________________________________________________________________
12/12/2019 21:47:59 VERBOSE  residual_32_3_leakyrelu_3 (Leak (None, 32, 32, 128)  0           add_10[0][0]
12/12/2019 21:47:59 VERBOSE  __________________________________________________________________________________________________
12/12/2019 21:47:59 VERBOSE  conv_32_0_conv2d (Conv2D)       (None, 16, 16, 256)  819456      residual_32_3_leakyrelu_3[0][0]
12/12/2019 21:47:59 VERBOSE  __________________________________________________________________________________________________
12/12/2019 21:47:59 VERBOSE  conv_32_0_leakyrelu (LeakyReLU) (None, 16, 16, 256)  0           conv_32_0_conv2d[0][0]
12/12/2019 21:47:59 VERBOSE  __________________________________________________________________________________________________
12/12/2019 21:47:59 VERBOSE  residual_16_2_leakyrelu_0 (Leak (None, 16, 16, 256)  0           conv_32_0_leakyrelu[0][0]
12/12/2019 21:47:59 VERBOSE  __________________________________________________________________________________________________
12/12/2019 21:47:59 VERBOSE  residual_16_2_conv2d_0 (Conv2D) (None, 16, 16, 256)  590080      residual_16_2_leakyrelu_0[0][0]
12/12/2019 21:47:59 VERBOSE  __________________________________________________________________________________________________
12/12/2019 21:47:59 VERBOSE  residual_16_2_leakyrelu_1 (Leak (None, 16, 16, 256)  0           residual_16_2_conv2d_0[0][0]
12/12/2019 21:47:59 VERBOSE  __________________________________________________________________________________________________
12/12/2019 21:47:59 VERBOSE  conv2d_16_2 (Conv2D)            (None, 16, 16, 256)  590080      residual_16_2_leakyrelu_1[0][0]
12/12/2019 21:47:59 VERBOSE  __________________________________________________________________________________________________
12/12/2019 21:47:59 VERBOSE  add_11 (Add)                    (None, 16, 16, 256)  0           conv2d_16_2[0][0]
12/12/2019 21:47:59 VERBOSE                                                                   conv_32_0_leakyrelu[0][0]
12/12/2019 21:47:59 VERBOSE  __________________________________________________________________________________________________
12/12/2019 21:47:59 VERBOSE  residual_16_2_leakyrelu_3 (Leak (None, 16, 16, 256)  0           add_11[0][0]
12/12/2019 21:47:59 VERBOSE  __________________________________________________________________________________________________
12/12/2019 21:47:59 VERBOSE  residual_16_3_leakyrelu_0 (Leak (None, 16, 16, 256)  0           residual_16_2_leakyrelu_3[0][0]
12/12/2019 21:47:59 VERBOSE  __________________________________________________________________________________________________
12/12/2019 21:47:59 VERBOSE  residual_16_3_conv2d_0 (Conv2D) (None, 16, 16, 256)  590080      residual_16_3_leakyrelu_0[0][0]
12/12/2019 21:47:59 VERBOSE  __________________________________________________________________________________________________
12/12/2019 21:47:59 VERBOSE  residual_16_3_leakyrelu_1 (Leak (None, 16, 16, 256)  0           residual_16_3_conv2d_0[0][0]
12/12/2019 21:47:59 VERBOSE  __________________________________________________________________________________________________
12/12/2019 21:47:59 VERBOSE  conv2d_16_3 (Conv2D)            (None, 16, 16, 256)  590080      residual_16_3_leakyrelu_1[0][0]
12/12/2019 21:47:59 VERBOSE  __________________________________________________________________________________________________
12/12/2019 21:47:59 VERBOSE  add_12 (Add)                    (None, 16, 16, 256)  0           conv2d_16_3[0][0]
12/12/2019 21:47:59 VERBOSE                                                                   residual_16_2_leakyrelu_3[0][0]
12/12/2019 21:47:59 VERBOSE  __________________________________________________________________________________________________
12/12/2019 21:47:59 VERBOSE  residual_16_3_leakyrelu_3 (Leak (None, 16, 16, 256)  0           add_12[0][0]
12/12/2019 21:47:59 VERBOSE  __________________________________________________________________________________________________
12/12/2019 21:47:59 VERBOSE  conv_16_0_conv2d (Conv2D)       (None, 8, 8, 512)    3277312     residual_16_3_leakyrelu_3[0][0]
12/12/2019 21:47:59 VERBOSE  __________________________________________________________________________________________________
12/12/2019 21:47:59 VERBOSE  conv_16_0_leakyrelu (LeakyReLU) (None, 8, 8, 512)    0           conv_16_0_conv2d[0][0]
12/12/2019 21:47:59 VERBOSE  __________________________________________________________________________________________________
12/12/2019 21:47:59 VERBOSE  residual_8_2_leakyrelu_0 (Leaky (None, 8, 8, 512)    0           conv_16_0_leakyrelu[0][0]
12/12/2019 21:47:59 VERBOSE  __________________________________________________________________________________________________
12/12/2019 21:47:59 VERBOSE  residual_8_2_conv2d_0 (Conv2D)  (None, 8, 8, 512)    2359808     residual_8_2_leakyrelu_0[0][0]
12/12/2019 21:47:59 VERBOSE  __________________________________________________________________________________________________
12/12/2019 21:47:59 VERBOSE  residual_8_2_leakyrelu_1 (Leaky (None, 8, 8, 512)    0           residual_8_2_conv2d_0[0][0]
12/12/2019 21:47:59 VERBOSE  __________________________________________________________________________________________________
12/12/2019 21:47:59 VERBOSE  conv2d_8_2 (Conv2D)             (None, 8, 8, 512)    2359808     residual_8_2_leakyrelu_1[0][0]
12/12/2019 21:47:59 VERBOSE  __________________________________________________________________________________________________
12/12/2019 21:47:59 VERBOSE  add_13 (Add)                    (None, 8, 8, 512)    0           conv2d_8_2[0][0]
12/12/2019 21:47:59 VERBOSE                                                                   conv_16_0_leakyrelu[0][0]
12/12/2019 21:47:59 VERBOSE  __________________________________________________________________________________________________
12/12/2019 21:47:59 VERBOSE  residual_8_2_leakyrelu_3 (Leaky (None, 8, 8, 512)    0           add_13[0][0]
12/12/2019 21:47:59 VERBOSE  __________________________________________________________________________________________________
12/12/2019 21:47:59 VERBOSE  residual_8_3_leakyrelu_0 (Leaky (None, 8, 8, 512)    0           residual_8_2_leakyrelu_3[0][0]
12/12/2019 21:47:59 VERBOSE  __________________________________________________________________________________________________
12/12/2019 21:47:59 VERBOSE  residual_8_3_conv2d_0 (Conv2D)  (None, 8, 8, 512)    2359808     residual_8_3_leakyrelu_0[0][0]
12/12/2019 21:47:59 VERBOSE  __________________________________________________________________________________________________
12/12/2019 21:47:59 VERBOSE  residual_8_3_leakyrelu_1 (Leaky (None, 8, 8, 512)    0           residual_8_3_conv2d_0[0][0]
12/12/2019 21:47:59 VERBOSE  __________________________________________________________________________________________________
12/12/2019 21:47:59 VERBOSE  conv2d_8_3 (Conv2D)             (None, 8, 8, 512)    2359808     residual_8_3_leakyrelu_1[0][0]
12/12/2019 21:47:59 VERBOSE  __________________________________________________________________________________________________
12/12/2019 21:47:59 VERBOSE  add_14 (Add)                    (None, 8, 8, 512)    0           conv2d_8_3[0][0]
12/12/2019 21:47:59 VERBOSE                                                                   residual_8_2_leakyrelu_3[0][0]
12/12/2019 21:47:59 VERBOSE  __________________________________________________________________________________________________
12/12/2019 21:47:59 VERBOSE  residual_8_3_leakyrelu_3 (Leaky (None, 8, 8, 512)    0           add_14[0][0]
12/12/2019 21:47:59 VERBOSE  __________________________________________________________________________________________________
12/12/2019 21:47:59 VERBOSE  conv_8_0_conv2d (Conv2D)        (None, 4, 4, 1024)   13108224    residual_8_3_leakyrelu_3[0][0]
12/12/2019 21:47:59 VERBOSE  __________________________________________________________________________________________________
12/12/2019 21:47:59 VERBOSE  conv_8_0_leakyrelu (LeakyReLU)  (None, 4, 4, 1024)   0           conv_8_0_conv2d[0][0]
12/12/2019 21:47:59 VERBOSE  ==================================================================================================
12/12/2019 21:47:59 VERBOSE  Total params: 29,604,608
12/12/2019 21:47:59 VERBOSE  Trainable params: 29,604,608
12/12/2019 21:47:59 VERBOSE  Non-trainable params: 0
12/12/2019 21:47:59 VERBOSE  __________________________________________________________________________________________________
…
