…
    291                 raise ValueError("Your model needs to output single-dimensional \
--> 292                     numpyarrays, not arrays of {} dimensions".format(yss.shape))
    293 
    294             predicted_value = yss[0]

ValueError: Your model needs to output single-dimensional                     numpyarrays, not arrays of (5000, 1) dimensions


FYI, 
full_test_npary[0].shape
(192,)

type(full_test_npary)
numpy.ndarray

model.summary()
Layer (type)                 Output Shape              Param #   
=================================================================
dense_45 (Dense)             (None, 128)               24704     
_________________________________________________________________
dense_46 (Dense)             (None, 64)                8256      
_________________________________________________________________
dense_47 (Dense)             (None, 32)                2080      
_________________________________________________________________
dense_48 (Dense)             (None, 16)                528       
_________________________________________________________________
dense_49 (Dense)             (None, 1)                 17        